# Ultralytics YOLO 🚀, AGPL-3.0 license
# YOLO11-CGAFusion_SWS Enhanced with Multi-Level Fusion

# Parameters
nc: 80  # 类别数
scales:
  n: [0.50, 0.25, 1024]
  s: [0.50, 0.50, 1024]
  m: [0.50, 1.00, 512]
  l: [1.00, 1.00, 512]
  x: [1.00, 1.50, 512]

# YOLO11n backbone
backbone:
  # [from, repeats, module, args]
  - [-1, 1, Conv, [64, 3, 2]] # 0-P1/2
  - [-1, 1, Conv, [128, 3, 2]] # 1-P2/4
  - [-1, 2, C3k2, [256, False, 0.25]]
  - [-1, 1, Conv, [256, 3, 2]] # 3-P3/8
  - [-1, 2, C3k2, [512, False, 0.25]]
  - [-1, 1, Conv, [512, 3, 2]] # 5-P4/16
  - [-1, 2, C3k2, [512, True]]
  - [-1, 1, Conv, [1024, 3, 2]] # 7-P5/32
  - [-1, 2, C3k2, [1024, True]]
  - [-1, 1, SPPF, [1024, 5]] # 9
  - [-1, 2, C2PSA, [1024]] # 10

head:
  # --- P5 -> P4 ---
  - [-1, 1, nn.Upsample, [None, 2, "nearest"]]  # 11
  - [[-1, 6], 1, Concat, [1]]                   # 12 cat backbone P4 (512+512=1024)
  - [-1, 1, CGAFusion_SWS, [512]]               # 13 Fusion with channel compression
  - [-1, 2, C3k2, [512, False]]                 # 14

  # --- P4 -> P3 ---
  - [-1, 1, nn.Upsample, [None, 2, "nearest"]]  # 15
  - [[-1, 4], 1, Concat, [1]]                   # 16 cat backbone P3 (256+512=768)
  - [-1, 1, CGAFusion_SWS, [256]]               # 17 Fusion with channel compression
  - [-1, 2, C3k2, [256, False]]                 # 18 (P3/8-small)

  # --- P3 -> P4 ---
  - [-1, 1, Conv, [256, 3, 2]]                 # 19
  - [[-1, 14], 1, Concat, [1]]                 # 20 cat head P4 (256+512=768)
  - [-1, 1, CGAFusion_SWS, [512]]              # 21 Fusion with channel expansion
  - [-1, 2, C3k2, [512, False]]                # 22 (P4/16-medium)

  # --- P4 -> P5 ---
  - [-1, 1, Conv, [512, 3, 2]]                 # 23
  - [[-1, 10], 1, Concat, [1]]                 # 24 cat head P5 (512+1024=1536)
  - [-1, 1, CGAFusion_SWS, [1024]]             # 25 Fusion with channel compression
  - [-1, 2, C3k2, [1024, True]]                # 26 (P5/32-large)

  # --- Final Feature Fusion ---
  - [[18, 22, 26], 1, CGAFusion_SWS, [256, 512, 1024]]  # 27 Multi-Scale Fusion
  - [[27], 1, Detect, [nc]]                    # 28 Detect(P3, P4, P5)
